convnet.onnx (onnx, 102820 bytes, 15 tensors)

conv0.weight f4 [1, 1, 7, 7]
000000 96 ea 54 3d 82 52 2a 3e 0f 7d 83 3e 72 f6 1b 3e
       0.05198153 0.16633037 0.2568135 0.1523073
000010 d8 a2 89 3e a2 7c 85 3e 67 58 be 3d cb e4 9b 3c
       0.26882052 0.2607165 0.09294205 0.019029995
000020 52 03 6d be 6e 07 c8 be b2 72 cc be 37 d7 07 bf
       -0.23145798 -0.39068168 -0.39931256 -0.53062767
000030 5e 75 0a bf 00 2e 84 be 58 53 ba be d1 ce 57 3d
       -0.5408534 -0.25816345 -0.3639171 0.05268747
000040 84 b9 09 be 23 4d 18 3d 32 47 5e be 45 99 80 bd
       -0.13449675 0.03718294 -0.21706846 -0.06279234
000050 e8 49 6b 3e 3e 75 bc bd 4c 25 14 bc 78 fb 3b be
       0.22977412 -0.0920205 -0.009042095 -0.18357646
000060 20 37 bd be 8d 0d 1f 3e 58 97 13 3f 77 de db 3e
       -0.3695612 0.15532513 0.5765281 0.42943165
000070 19 53 bb 3d 3a 01 d8 bc 6d 39 03 3e 00 46 70 be
       0.09146709 -0.026367772 0.12814875 -0.23464203
000080 a1 7c b2 3e 6b 7c cb 3e 2b 22 37 3f 0b 9c b0 bc
       0.3486071 0.3974336 0.7153651 -0.021558782
000090 20 44 8d bb 70 89 9c 3c 12 98 be bd 0e 56 2d 3d
       -0.0043110996 0.019108504 -0.09306349 0.042318396
0000a0 bf f5 9f be c7 fd 35 be 28 a3 67 3d 9a ad d0 3b
       -0.31242177 -0.1777259 0.056552082 0.006368351
0000b0 42 1e 9b 3d 24 74 2e 3e 86 70 29 3d 24 0f 04 bd
       0.075741306 0.17036492 0.041367076 -0.032241
0000c0 d7 8d 73 3b
       0.00371634

conv1.weight f4 [1, 1, 3, 3]
000000 49 49 29 3f 2c 9f ee 3d 8f 22 e0 3e 6b 64 80 3f
       0.6612745 0.116514534 0.43776366 1.0030645
000010 24 99 c5 be 04 e3 90 bf 4f 47 b9 bc 3b dd 5d be
       -0.385934 -1.131928 -0.02261701 -0.21666424
000020 ff 4b 87 3e
       0.26425168

conv2.weight f4 [1, 1, 3, 3]
000000 a9 a3 a2 be d7 06 e9 3c 8a 60 6b 3e 27 46 da be
       -0.31765488 0.028445644 0.22986045 -0.42631647
000010 6d 22 ed be c3 0f 48 3f c4 73 e8 be 53 c0 9c bf
       -0.46315327 0.7814905 -0.45400822 -1.2246193
000020 47 31 db 3c
       0.026756896

conv3.weight f4 [1, 1, 3, 3]
000000 1b 34 a6 bc 36 2e cf bd dc e0 53 3f 01 d9 32 3f
       -0.020288518 -0.10116236 0.82764983 0.6986237
000010 b8 79 06 3f bc f1 3b be 74 25 19 bc 7b f6 47 3f
       0.5252948 -0.18353933 -0.009347308 0.78110474
000020 7e 9c 1f 3e
       0.15587041

conv4.weight f4 [1, 1, 5, 5]
000000 e0 2a d6 bd 00 a4 45 3c 6c 37 d0 bb 10 d8 e7 3d
       -0.104573965 0.012063026 -0.006354263 0.113205075
000010 8e 32 6d be 60 12 a5 3d dc 5c a2 3d df 4f 0f bc
       -0.23163816 0.080601454 0.07927868 -0.00874707
000020 cb 15 54 3d f4 1f 12 bf 86 ba 00 3e 4f 14 45 3d
       0.051778596 -0.57080007 0.12571153 0.04811507
000030 db db 98 bd c3 10 29 be 2d 73 03 bf d0 70 42 3e
       -0.07463809 -0.165103 -0.5134762 0.18988347
000040 09 ee 50 3e 48 06 a5 be 1f a9 ee be 70 ba c5 3d
       0.20403303 -0.32231355 -0.46613404 0.09654701
000050 d3 9f cf 3d 42 e3 b5 bd 28 15 97 3e 66 ab 5a be
       0.10137906 -0.088812366 0.29508328 -0.21354446
000060 22 8e d8 bd
       -0.10573985

conv5.weight f4 [1, 1, 3, 3]
000000 ff a5 5c 3e 1e ef b7 3e 9f 80 9f be f5 a8 06 bf
       0.21547697 0.3592462 -0.31152818 -0.5260156
000010 2a 78 39 3f ae 0b 4c 3f 72 c0 f3 3e b6 07 9d 3f
       0.7244898 0.7970532 0.47607762 1.2267978
000020 b5 ba 8c bd
       -0.06871549

conv6.weight f4 [1, 1, 3, 3]
000000 df 4d 5e 3f 47 1b 78 3f 2b f5 58 3f 76 73 7b be
       0.8683757 0.9691662 0.84749097 -0.24555764
000010 1f d3 8f 3e 07 f0 09 bf c3 db fd 3e 81 24 02 bf
       0.2809076 -0.5388188 0.49581727 -0.5083695
000020 74 33 21 bd
       -0.03935571

conv7.weight f4 [1, 1, 3, 3]
000000 98 2d 24 bd 23 bd 08 3e 05 7f 9f bf 89 ce 23 bb
       -0.040082544 0.133534 -1.2460638 -0.002499493
000010 86 5e 79 3f e6 97 62 3f 2f 4a c4 be 1d 69 b5 be
       0.97409856 0.8851303 -0.38337848 -0.35431758
000020 32 38 de be
       -0.4340225

conv8.weight f4 [1, 1, 5, 5]
000000 85 69 41 3e 5b 0a b2 b9 eb 9e 4c 3e e1 78 9d 3d
       0.18887909 -0.0003395852 0.19982497 0.076890714
000010 ab 90 5f 3e bd cf 0d 3e 7f 00 cc 3c 6a e7 49 3e
       0.2183253 0.13848777 0.02490258 0.19717184
000020 28 e7 00 3d 67 68 88 3e 59 e1 06 3e 79 c3 60 bd
       0.031470448 0.26642153 0.13171901 -0.054873917
000030 a3 7e 30 3e c5 f0 58 bd ea 3d 28 3e 72 10 e1 3d
       0.17235808 -0.05296399 0.16429868 0.10989465
000040 4c ad 32 3d 94 54 39 3e d5 1f da bd 12 c8 d1 3d
       0.0436223 0.1809867 -0.10650603 0.102432385
000050 24 7b 2c 3e 91 0c b9 3c 96 d6 10 3e 89 a1 4f bd
       0.1684385 0.022589 0.14144358 -0.05069116
000060 4e f8 5f 3e
       0.21872064

conv9.weight f4 [1, 1, 3, 3]
000000 2d a3 dc 3e 8e 2a e6 bc 67 6b b8 bc 8c e7 c0 3d
       0.43093243 -0.028096464 -0.02251215 0.09419164
000010 e3 a7 27 3e 0c 4b a1 be 4b ab c6 3e cb ea fa 3e
       0.16372637 -0.3150257 0.3880256 0.49007258
000020 67 6c 95 3f
       1.1673707

conv10.weight f4 [1, 1, 3, 3]
000000 c4 d8 8a 3c 55 59 dc bd e2 76 63 bd 70 52 9a bf
       0.016949065 -0.10759226 -0.055533297 -1.2056408
000010 c8 c7 47 be e3 48 27 3f ab 50 b2 be 76 19 7f 3e
       -0.19509804 0.6534559 -0.3482717 0.24912056
000020 fc 33 37 3f
       0.71563697

conv11.weight f4 [1, 1, 3, 3]
000000 92 f4 90 3f e0 bc b4 be 28 70 a9 3e 3b 3c a6 bd
       1.1324637 -0.3530035 0.3309338 -0.08116957
000010 91 e5 6b bd 50 ed 46 3f 9a 73 6c be 99 87 b2 be
       -0.05759198 0.7770586 -0.23090973 -0.34869078
000020 60 ea d1 bd
       -0.102497816

conv12.weight f4 [1, 1, 5, 5]
000000 45 a5 06 3e bc 5b 42 be 30 27 36 be 08 1f 9a 3d
       0.13148983 -0.18980306 -0.17788386 0.0752545
000010 41 7a 98 be 9f 78 23 be a9 45 0e 3f bb eb 6f bd
       -0.29780772 -0.15963982 0.5557504 -0.05857442
000020 e4 8e 7e 3e 12 20 3f 3e d9 f7 72 be 15 52 23 3e
       0.24859196 0.18664578 -0.23727359 0.1594928
000030 26 bc 6a 3c 72 2d 01 bd 51 52 a2 3d 26 b8 06 3f
       0.014327085 -0.03153748 0.07925857 0.5262474
000040 b2 c9 ab 3e 94 ee 36 3e 37 2f 13 3e 83 ba b1 3d
       0.3355232 0.17864448 0.1437348 0.086781524
000050 ac ec ac be f3 db 60 be af 3c 52 be b7 74 38 be
       -0.33774316 -0.21958904 -0.20530961 -0.18013273
000060 c6 11 9c be
       -0.3048231

fc1.weight f4 [10, 100]
000000 b5 87 22 bf 12 3f cb be 1d b7 73 bd 56 75 3b 3e
       -0.6348832 -0.39696556 -0.059500802 0.18306479
000010 6b 9f 0d bf c9 a6 84 3d 9c df 5e 3d 82 8f fa bd
       -0.5532138 0.06477124 0.05441247 -0.12234403
000020 0a c7 5a bf 99 64 b7 be 0b 75 bf 3d d1 3b 5f be
       -0.8545996 -0.35818937 0.09348496 -0.21800162
000030 64 0f c6 bd 3b 71 f9 bc bc 45 a8 be 96 f2 02 bf
       -0.09670904 -0.0304495 -0.32865703 -0.51151407
000040 fa fc 5a bf c0 d6 07 bf 85 fc 85 be 96 ce 31 bf
       -0.8554226 -0.5306206 -0.2616922 -0.6945585
000050 05 c6 b6 3e 50 41 07 bf e5 29 c4 3e b8 63 e2 3e
       0.35697952 -0.52834034 0.38313213 0.44216704
000060 0a 47 e9 3c c8 ea 45 3e e1 2f 2e 3e f6 55 c6 3e
       0.028476257 0.19327843 0.17010452 0.38737458
000070 17 e3 90 3e b6 f1 9b bd cb e5 9a 3e a3 06 1b bf
       0.28298256 -0.07614462 0.30253443 -0.60557
000080 e4 4e 4e 3e 3f 63 b3 3e 70 7e 3b bd 04 f2 20 be
       0.20147282 0.35036656 -0.045774877 -0.15717322
000090 24 22 69 3e f1 8f da 3c f4 7a 92 be eb 44 b7 3e
       0.2276693 0.026679965 -0.2860943 0.35794768
0000a0 ef 57 ae 3e 61 ca 18 bf 65 c4 a9 3e 40 3a 6a be
       0.34051463 -0.59683806 0.3315765 -0.22873783
0000b0 c4 40 8c be 03 f8 ad bd f8 4b 04 3d 97 ce 02 bf
       -0.27393162 -0.0849457 0.032299012 -0.5109648
0000c0 b0 62 4f 3e 69 53 8f 3e 0c a7 b6 3e 03 61 13 3e
       0.2025249 0.27993324 0.35674322 0.14392476
0000d0 d5 91 d4 bd ce 53 d0 3d 45 f2 4e be d7 10 ea 3c
       -0.10379378 0.101722345 -0.20209606 0.028572483
0000e0 91 f9 6e be e2 94 cb be 4e 38 10 3f 8f e3 da 3e
       -0.2333739 -0.39762026 0.56335914 0.42751738
0000f0 50 a3 70 3e cf 40 20 3f 32 9f 94 3e dd d3 eb bd
       0.23499799 0.6259889 0.29027706 -0.11515019
000100 2a a4 5b bf 56 1b 27 bf 2d 1d 69 bf e6 4b 00 bf
       -0.8579737 -0.65276086 -0.91060144 -0.5011581
000110 3d 92 a5 3e 18 bc e0 3e 19 f0 72 3e 9e 4c b2 3d
       0.32338133 0.43893504 0.23724402 0.0870602
000120 9c 7c 17 bf 41 01 86 be 70 bf 9d 3e 99 cd b0 3e
       -0.59174514 -0.26172832 0.30810118 0.3453186
000130 03 75 1f 3f 79 51 5e 3d bc 3f 03 3f 65 67 15 3f
       0.6228792 0.054276917 0.51269126 0.5836089
000140 ba 4b 04 3f e9 fd 09 3f bd 3d 13 bf 97 fa a4 3e
       0.5167805 0.5390306 -0.5751608 0.32222435
000150 08 ed 48 be 3a fe 19 bf bd 12 d8 3e 07 5f a9 3e
       -0.1962167 -0.60153544 0.42201796 0.33080313
000160 68 72 f6 3e af 16 d1 3e 37 b8 1d 3f ec 90 8f bd
       0.4813416 0.4083762 0.61609215 -0.070100635
000170 60 bd 9c bf 0c d7 f9 bf 93 9d 5c bf c3 8b 1f bf
       -1.2245293 -1.9518752 -0.8617794 -0.62322634
000180 43 39 35 bf db 2c e6 be 0a 33 a6 3c e2 c9 1a be
       -0.707905 -0.44956097 0.02028801 -0.15116075
000190 85 59 dc 3e 4f ad 2a 3f 41 1d 92 3e f0 2e af 3d
       0.43037048 0.666707 0.28537944 0.085538745
0001a0 74 68 7c 3d e6 55 bd 3d 0f 8b 9e 3e 4e e2 0e 3e
       0.06162305 0.092448995 0.30965468 0.13953516
0001b0 5c 64 f7 3e e6 4d 1d 3f e7 56 5a c0 33 1c 25 be
       0.48318756 0.6144699 -3.411554 -0.16124038
0001c0 97 e3 94 be 90 7e bb 3e 99 3c b8 be b7 50 7e be
       -0.29079887 0.36619997 -0.35983732 -0.24835478
0001d0 2f 51 3a be 25 ac 99 bd 09 b8 22 bf ca 63 6d bf
       -0.18195032 -0.07503537 -0.63562065 -0.9273039
0001e0 66 81 83 be 2a be f6 bd 26 84 92 3e cd 68 2a 3e
       -0.2568466 -0.1204799 0.28616446 0.16641541
0001f0 20 69 10 3e cb bd 13 3e ca 16 e4 3e 0f 68 ac 3e
       0.14102602 0.14427869 0.44548637 0.3367314
000200 3d 15 13 bf 6f db 7c bf 0e fd e9 3d 1a 75 6b 3e
       -0.5745428 -0.9877233 0.114252195 0.2299389
000210 7f cf 86 3e 1b af 83 3b 14 01 1c 3e 71 cb 50 3e
       0.26330182 0.004018677 0.15234786 0.20390107
000220 18 5e 8f 3e 55 bf 86 3e 0d 17 e3 be e6 a5 70 bf
       0.28001475 0.2631785 -0.44353524 -0.9400314
000230 04 31 17 bf 1f 07 a1 bc 41 c0 b2 be b5 ae 2a be
       -0.59059167 -0.019656716 -0.34912303 -0.16668208
000240 e3 00 89 3e 9b 9a de bc 3c 38 89 bd b5 35 40 3e
       0.2675849 -0.027173331 -0.06700179 0.18770488
000250 b9 f2 8e be 81 5d 8c bf 68 62 d1 be 90 9c 8c be
       -0.27919558 -1.0966035 -0.4089539 -0.27463198
000260 77 2e c3 3d d6 78 b7 3d f0 1f cd 3c ca 7a 5b be
       0.09530347 0.089585945 0.025039643 -0.21433559
000270 4e b6 91 3e 33 43 14 3f e6 da da bd ef 48 38 bf
       0.284594 0.5791504 -0.10686283 -0.7198629
000280 f1 6c f1 be 26 ff 16 3e 2c b5 39 3f 36 ff a1 3e
       -0.47153428 0.14745769 0.7254207 0.31640023
000290 a0 8a 7c 3d f7 74 95 be a3 21 4f bd f1 87 16 3f
       0.06165564 -0.291908 -0.050569188 0.5880118
0002a0 15 fc ef 3e 28 98 0d bf 3a de 23 bf 09 02 35 3f
       0.4687201 -0.55310297 -0.64010966 0.7070623
0002b0 07 9e 38 3f 73 81 ea 3d 77 18 cc 3d b8 48 9e be
       0.7211613 0.11450472 0.09965604 -0.30914855
0002c0 b9 10 80 3e 24 f0 3a 3f 53 fc 1a 3f bb ff 22 bf
       0.25012758 0.73022676 0.60541266 -0.63671464
0002d0 fa da 37 bf b9 06 67 be d7 bc 0a 3d bc 65 cb 3e
       -0.71818507 -0.22561158 0.033871498 0.39726055
0002e0 64 6c 19 3f 41 2e 9c 3e 7e cd 61 be ff 18 0c be
       0.59931016 0.3050404 -0.22051045 -0.1368141
0002f0 c4 9e dc be ff 92 02 c0 8c 9b c1 bd c7 69 28 3d
       -0.4308988 -2.040222 -0.09453496 0.041116502
000300 e6 ed b9 bd a5 35 89 3e ab f1 29 3d 5b 02 ac 3d
       -0.09078579 0.2679874 0.04149024 0.08398887
000310 ed f3 22 3e 9f cf f7 be b0 1b c9 bf 3c 6e 1e c0
       0.15913363 -0.4840059 -1.5711575 -2.4754782
000320 3d f2 34 bd ce 3c 2a 3d 2b df 89 be a8 9b a6 be
       -0.04417633 0.041561894 -0.26928076 -0.3254063
000330 90 5e 94 3b 59 83 9a 3d 0f a4 8b be a9 81 98 be
       0.0045278743 0.07544584 -0.27273604 -0.29786423
000340 52 a2 b7 be b4 dc a3 bf 42 13 89 be 74 58 c2 3e
       -0.35866028 -1.2801728 -0.26772505 0.3795811
000350 76 f2 95 be 86 86 18 3e c9 c7 17 3f 56 ad 4e 3f
       -0.29286546 0.14895067 0.5928922 0.8073324
000360 56 01 21 3f b8 c8 5d 3e c8 ca 5a 3f 4b da 07 3f
       0.62892663 0.216586 0.8546567 0.53067464
000370 c4 45 0e bf 07 90 e3 3d 2a 95 b0 be 34 62 69 bd
       -0.55575204 0.111114554 -0.34488803 -0.05697842
000380 1d ff a5 3d 1b 20 c5 3e 16 1e 56 3e bf a8 97 3e
       0.081052996 0.38501057 0.20909914 0.2962093
000390 cd 15 ff 3e 43 3d e5 3e 0c 74 19 bf 9e f4 54 3e
       0.4982132 0.447733 -0.599427 0.20796439
0003a0 2e dc 10 bd 45 25 1c bc e9 f0 02 3e 46 46 99 bd
       -0.03536623 -0.00953037 0.12787212 -0.07484107
0003b0 e5 26 4b be d7 dd f2 3b 18 c8 12 3e 21 3b f8 3e
       -0.19839056 0.0074116993 0.14334142 0.48482612
0003c0 16 cf e4 be c1 5b 00 3f 63 38 c5 3e 55 7e b7 3d
       -0.44689244 0.50140005 0.38519582 0.08959643
0003d0 4b 53 70 3e f9 60 85 3d 5d a3 a1 3e 69 90 93 bb
       0.23469274 0.06512637 0.3156995 -0.004503299
0003e0 5a ea 61 3e 76 6a a8 3e 0b 6d 1e bf c7 27 e6 3e
       0.22062054 0.32893723 -0.61885136 0.44952223
0003f0 2e 5e 48 3e 04 22 92 bd cd 6d 81 3e 05 7b 31 3e
       0.19567177 -0.07135394 0.25279084 0.17332084

fc1.bias f4 [10]
000000 c6 cb 35 c0 44 04 7d bf eb 33 76 3f 4b b0 a6 3f
       -2.8405623 -0.98834634 0.9617297 1.302255
000010 b2 ce fb bf 47 43 27 40 f7 30 97 bf 5e 8b 2c bf
       -1.9672453 2.6134813 -1.1811818 -0.6740016
000020 97 e7 a9 3f 17 44 df be
       1.3273801 -0.43606636
