convnet.pt (torch, 12625 bytes, 15 tensors)

conv0.weight f4 [1, 1, 7, 7]
00000000: a158 733b a152 053e 8b7d 9ebc 8a52 203c
00000010: ce26 5abb ed8e 0e3e a7f5 723c 1a14 25bd
00000020: daa0 953d 4d5f 183e 7c20 0a3e 74a8 9d3d
00000030: a851 5c3d 1525 eb3c 660f 9a3d cfed ed3d
00000040: 5c65 01bd db51 163e 3ddc 0b3d 3093 50bd
00000050: 4c8d 68bd 31b2 8c3d 8eb0 543d a4e5 063e
00000060: decd f63d f088 97bc 159d e63c 5b9f 4abc
00000070: ea33 583d 9134 893d 1adb b53d fb9a 71bc
00000080: 23e2 043e 8b64 b13d 3817 113d 2447 403d
00000090: 43ff b53c 2eac a73d 5d2c 183d 5250 443c
000000a0: 1413 5d3d 84c8 66bb 9e9c fd3b a2df 9c3c
000000b0: c910 b03d 3b49 913d 1ca3 b73d 1dc8 153e
000000c0: 8c83 0f3e
0.0037131684 0.13019802 -0.019346973 0.009785304 -0.003328729 0.1392171 0.014829076 -0.040302373
0.073060706 0.14880104 0.13488954 0.076981455 0.05378881 0.028704206 0.07522468 0.11617624
-0.031590804 0.14679663 0.034145582 -0.05092162 -0.056775376 0.06869925 0.05192619 0.13173538
0.12050985 -0.018497914 0.028151074 -0.012367095 0.052783884 0.06699479 0.08879681 -0.014746423
0.1297689 0.08661755 0.035422534 0.046942845 0.022216445 0.081871375 0.037151683 0.0119820405
0.053973272 -0.0035214731 0.0077396175 0.019149605 0.085969515 0.07094046 0.089666575 0.14627118
0.14015025

conv1.weight f4 [1, 1, 3, 3]
00000000: 1d25 e33c c0a6 2cbe 20cb 39be 532b 9a3d
00000010: b348 db3d 263e 1cbe 14fd dc3d b3fe 4bbe
00000020: 4959 cdbd
0.027727658 -0.16860485 -0.18143892 0.07527795 0.10707226 -0.15258083 0.10790458 -0.19921379
-0.100267954

conv2.weight f4 [1, 1, 3, 3]
00000000: 448f 383e 0b89 97bd 3cb4 223e 0c75 b6bd
00000010: 60a4 b53d 1c3e 4cbe 0fea 1d3e 91e4 57be
00000020: 4d44 94bd
0.18023401 -0.07399186 0.15889066 -0.08909044 0.08869243 -0.19945568 0.15421318 -0.21083285
-0.0723959

conv3.weight f4 [1, 1, 3, 3]
00000000: 73eb 1dbe a540 19bd a3ae 4e3c 8592 403e
00000010: aaef 963d 6460 0f3e a8c2 023e d404 60bd
00000020: f8a0 25be
-0.15421848 -0.037415165 0.012614879 0.18805893 0.07369931 0.14001614 0.12769568 -0.054692104
-0.16174686

conv4.weight f4 [1, 1, 5, 5]
00000000: 0ca3 873d 055b f83d 125c de3d 0a65 123e
00000010: d40e a43c fee9 95bd f247 71bd 6ba7 71bd
00000020: f673 083e c7d3 1d3e 2606 b43d 2bd1 f63d
00000030: bd33 1a3d 45d1 233e 5899 83bd 4cc1 453e
00000040: d47a 453e 16ac 1d3e dfc4 963d 2006 a13b
00000050: 108f 223e ca7a b63d 2e93 8c3d 691e 2c3d
00000060: 1fee 6cbb
0.066228956 0.121267356 0.10857405 0.14296356 0.020026602 -0.07320021 -0.058906503 -0.058997553
0.13325486 0.15412818 0.08790235 0.120516144 0.037646998 0.15997799 -0.064257324 0.19312018
0.19285136 0.15397677 0.07361769 0.0049140602 0.15874887 0.08910139 0.0686401 0.04202119
-0.0036152673

conv5.weight f4 [1, 1, 3, 3]
00000000: 24ea 3a3e 2ffe dd3d aac5 7bbe 2a02 e9bd
00000010: 60ce ca3d 7e3c 26be c93c 6c3e ab02 cd3d
00000020: 8143 bfbd
0.1825338 0.10839497 -0.24587122 -0.11377366 0.09902644 -0.16234013 0.23070063 0.100102745
-0.09339047

conv6.weight f4 [1, 1, 3, 3]
00000000: 67de 67be 1bad 693e 9af6 123e 5770 13be
00000010: 2449 bdbd 1ed7 9a3b 84f2 893d 7e59 5ebe
00000020: 1c87 51bd
-0.22643434 0.22819941 0.14351884 -0.14398323 -0.09242466 0.004725351 0.06735709 -0.21713826
-0.05115424

conv7.weight f4 [1, 1, 3, 3]
00000000: faa5 583e 16d1 613d fd35 c73c 93fb b4bd
00000010: 829c 013e b42c c7bd 2909 b93d bfbd d4bd
00000020: 96b6 33be
0.21157065 0.05513104 0.024317736 -0.088370465 0.12657359 -0.09725323 0.0903495 -0.10387754
-0.1755012

conv8.weight f4 [1, 1, 5, 5]
00000000: c246 d03d 7cbd 833d e254 df3a 273f 1a3d
00000010: 77f3 4dbd 78b8 ffbc 01bb 173e 225b 573b
00000020: 543d d13d 24be 133e e715 2e3e 748b d5bb
00000030: 2f0e a7bc 79c8 ce3c a103 2c3e 6b8a 023e
00000040: c826 763d 3e95 3b3e 2ad2 353b ba4a 50bd
00000050: 20d9 adbc ab76 c03d 9c92 00bd 4fe8 c8bd
00000060: 6ab5 373c
0.10169746 0.06432626 0.0017038847 0.037657883 -0.050281014 -0.031215891 0.1481743 0.0032860716
0.102167755 0.14428002 0.17000543 -0.0065168682 -0.020392505 0.025242077 0.1679826 0.12748115
0.06009558 0.1831865 0.0027743676 -0.050852515 -0.021221697 0.09397634 -0.031389818 -0.09809934
0.011212686

conv9.weight f4 [1, 1, 3, 3]
00000000: fb29 3ebe 6e9e 88be 41c0 c4bd 2ca1 8bbb
00000010: d5ed 47be aeec 11be 77c8 c8bc feac 693e
00000020: fa74 a23d
-0.18570702 -0.26683372 -0.09606982 -0.0042611565 -0.1952432 -0.14250442 -0.024509652 0.22819898
0.07932468

conv10.weight f4 [1, 1, 3, 3]
00000000: f61e aabd a083 6ebd 0f15 74bd 84f3 52be
00000010: 9d78 303e 90ec 433e 99ee efbd 1245 233e
00000020: 7c7f be3d
-0.083066866 -0.058230996 -0.059590396 -0.20600706 0.1723351 0.1913321 -0.11715431 0.15944317
0.093016595

conv11.weight f4 [1, 1, 3, 3]
00000000: 0d0e 9cbd 54ab a63d 7589 2c3e f8ab 8c3b
00000010: f69d cf3d f781 c03d 46a9 243d e73a 06be
00000020: 6ac4 84bd
-0.076198675 0.08138147 0.1684931 0.004292961 0.101375505 0.09399789 0.040200494 -0.13108407
-0.064827755

conv12.weight f4 [1, 1, 5, 5]
00000000: 9f65 87bd 55c4 833c 544b 29be ab26 1fbe
00000010: 72b8 e3bd e555 fbbc b907 e3bd 10bb 133d
00000020: 9cf5 7fbc 0615 293b b7c0 11be 8a1b fd3c
00000030: 737e 043d 33ba e8bd 5b04 e9bd d41e 4cbe
00000040: 1d9b debc a720 00be a535 bbbd fa4a 2cbe
00000050: 5fa6 2e3d 14e3 6b3d 86ea e4bd 4a62 863d
00000060: 07e8 abbd
-0.066111796 0.01608483 -0.16532642 -0.15542094 -0.111191645 -0.030680606 -0.11085457 0.03606707
-0.015622523 0.0025799884 -0.14233671 0.03089692 0.032347154 -0.1136364 -0.11377784 -0.19933635
-0.027173573 -0.12512456 -0.09141091 -0.16825476 0.042639133 0.057589605 -0.11177544 0.06561716
-0.08393865

fc1.weight f4 [10, 100]
00000000: bff6 613b 2a01 403d fa52 8b3d 1872 253d
00000010: 3dee 893d c8f1 a5bb eddf 1bbc a2fe a43d
00000020: 48b8 ed3c 1187 753d 3e31 fcbc d53a 443b
00000030: 6d92 efbc 0210 343d 5558 88bb bc3a 493d
00000040: ba88 1e3d 1353 10bc c233 753c a6ef 5a3d
00000050: b082 1d3d 62e8 9e3b 76b4 4aba 4b25 fcbc
00000060: d1b1 06bd 0730 953d 4b1c a23d 49d1 623d
00000070: 3adf 2abd a8b4 9d3d eac9 9a3d 12da 323a
00000080: 961e 00bd 722a 06bc 453d 8c3c 4961 7a3d
00000090: 49ec 02bd edf1 133a fc91 553d 2d40 873d
000000a0: cb41 17bd 4251 21bd 13d6 fe3a 5547 99bc
000000b0: cc5b 953d f332 b33d 4299 09bd f22a 313d
000000c0: a706 ba3c a13e 2bbd 6b22 133d a7e8 913d
000000d0: 328f 283c c7ac 9f3d bfd9 083d 0c92 ac3c
000000e0: 2049 4c3c 0771 10bd 8ec7 623c f38e 423d
000000f0: db3a f5bc 502b 953d c028 bd3c 1d66 0fbc
00000100: e040 a33d 018c c23c 1ef6 103c adc4 e93b
00000110: 52f4 863d 9a97 1c3d 19ed 21bc af48 79bc
00000120: 511c 253d 85f3 513d f416 003c 1e39 a6b7
00000130: 3c40 f23c 3566 14bd 97e0 363d 7124 7e3d
00000140: 87cd 18bd e300 45bb 7590 b93c d3ad 9f3c
00000150: fc8e ccbc f124 d23b e020 97bc 1c56 cfbc
00000160: 593e f23c fc2a c8bc df42 223d cf21 a03d
00000170: 9a6a 963d 4dd1 953d 6cca a13d f686 123d
00000180: 564f 573d 1029 973d b8ee ff3c 2b6a f7ba
00000190: 2165 9bbd 72f1 f93c 0b26 72bd f619 243d
000001a0: daa2 b9bd c3db 8f3c ace0 aebb 5301 4c3c
000001b0: 9996 b53b f767 1b3d 42ba 09bd 33b2 183d
000001c0: 2ffc dbb8 1780 bebc a19a f43c 3415 2cbc
000001d0: c7c7 85bd ce1c 76bd c584 47bd beb3 9fbd
000001e0: 4cfc 9bbd 27e6 273c 50b0 e83c 2f53 89bd
000001f0: 31f7 cdbc 2a7c bfbd 2023 a6bd 36ac 0d3d
00000200: 448b 3cbd 7dc0 19bd 4247 a5bc cc1d 053c
00000210: 583a b1bc d64a 23bc e2d7 073d 70d0 093b
00000220: 8db7 b8bd 859b afbd 7fcc 4b3c cd4a 6abc
00000230: 5f2f 02bc c8fb 77bb 722d e93c 93d1 00bd
00000240: 150e 1fbd e77e 64bd 266b 75bd 0d0b eabc
00000250: 2381 273d 915f ea3c c35b 28bd 722f 5ebd
00000260: 427f 09bd ae8b d83c 27d1 b13c 8759 10bc
00000270: c202 35bb 702e a4bc e3f6 163c c5d5 3cbd
00000280: 8214 6bbd a3e4 d2bc 3b6c ba39 9f5a cfbc
00000290: e207 40bc 16de 9cbd 42c0 c23c 53e4 7ebd
000002a0: 6e22 fbbb 8298 ffbb 74bf ef3c 6c92 0cbd
000002b0: 8ada 3dbc 69ed 85bd a5ac fe3c 4279 a8bd
000002c0: 77dc 78bd 5eed f23c 4c8a b73c 79ac 95bc
000002d0: 97b5 4fbd 1a1f a13c 3750 0f3d f8b1 8abd
000002e0: ec23 9b3c a70f 3cbc fd60 c73c 99aa 70bd
000002f0: 92fc 87bc 6175 9e3c ea2b 23bc ad93 a73c
00000300: a89d b43c cc5e 1cbd 19b8 93bd 38a9 11bc
00000310: 885c 2fbd 3498 0cbd 965b 39bd 6fa2 00bd
00000320: c12c dc3d 7ed8 81bb 0c74 a7bc 10ed 723c
00000330: bd69 d83d c29e 0b3d fc26 813d 1d8a 4f3d
00000340: 92cb ef3c adc8 a63d 0715 c53d a1e6 da3d
00000350: 24bf b93c 15fd b83d 5397 ac3c aad6 863d
00000360: 6749 813c bcf8 fd3c 97fe 6c3d 8f86 8f3d
00000370: 0ed6 9a3d 46d1 07bc 2831 5e3d 88bc 7c3c
00000380: 20dd 6f3a 682e 343d 8edc e43d ba70 09bb
00000390: 03ff dd3d 077d de3c c28b 093d eb06 acbb
000003a0: 9d83 c33c 9118 d43d 01d1 df3d aab9 8d3d
000003b0: 66b4 e63d 744d 8c3d d9d6 a43c de80 913c
000003c0: 54d9 8a3a a8c9 ac3d b1b9 85bc 93fc 863c
000003d0: 1764 9a3d 9499 773d 92bd 2d3c 042b 4d3c
000003e0: a0aa 713d f82d a73d 37d7 a5bc 847f 823d
000003f0: f5a1 6e3d e4c2 b43d 76dd ee3d 3591 7b3d
0.0034479348 0.04687611 0.06802936 0.04039201 0.067348935 -0.005064223 -0.009513837 0.0805638
0.029018536 0.059943262 -0.0307852 0.0029942293 -0.029244626 0.04396058 -0.0041609206 0.04912828
0.03870461 -0.008808869 0.014965953 0.053451203 0.03845471 0.0048494795 -0.0007732579 -0.030779501
-0.032884423 0.07284551 0.07915553 0.05537537 -0.04171679 0.07700473 0.07558043 0.0006822656
-0.03127917 -0.008188831 0.01711906 0.061127935 -0.03196362 0.0005643655 0.052141175 0.066040374
-0.03692798 -0.039384134 0.0019442461 -0.018710772 0.072928995 0.08749952 -0.033593424 0.043253846
0.02270825 -0.041807774 0.035921495 0.07124453 0.010288047 0.077966265 0.033410784 0.021065734
0.012468606 -0.03526404 0.013841523 0.04749961 -0.029935291 0.07283652 0.02309072 -0.008752373
0.07971358 0.0237484 0.008847741 0.0071340413 0.06589569 0.038230516 -0.009883189 -0.015215083
0.040310208 0.05125763 0.007817972 -1.981534e-05 0.029571645 -0.036230285 0.04464778 0.062046472
-0.03730538 -0.0030060343 0.02265189 0.019492066 -0.024970524 0.006413095 -0.018448293 -0.025309615
0.029570745 -0.024434559 0.039614554 0.078189485 0.073445514 0.073153116 0.07899937 0.03577324
0.052565895 0.07380879 0.03124176 -0.0018876245 -0.07587648 0.030510638 -0.05911831 0.04006382
-0.090642646 0.017560845 -0.0053368416 0.012451488 0.0055416343 0.037940945 -0.033624895 0.03727932
-0.000104897066 -0.023254437 0.029858889 -0.010503102 -0.06532245 -0.060086064 -0.048710603 -0.07797955
-0.07616481 0.010247744 0.028404385 -0.06705319 -0.025142284 -0.09349854 -0.08112168 0.03458806
-0.04603125 -0.037537087 -0.02017558 0.00812478 -0.021634266 -0.009966573 0.033164866 0.002102878
-0.090193845 -0.08574585 0.012438892 -0.01430006 -0.007945864 -0.0037839282 0.028464053 -0.031449866
-0.03883179 -0.055785086 -0.059916638 -0.028569723 0.04089464 0.028610023 -0.041103136 -0.054244466
-0.033568628 0.026433792 0.021706177 -0.0088104075 -0.0027620052 -0.020041674 0.009214136 -0.046102304
-0.057392605 -0.025743788 0.00035557323 -0.025311766 -0.011720629 -0.07659547 0.023773316 -0.062229466
-0.0076640164 -0.007800163 0.029266097 -0.034319326 -0.011587748 -0.06539423 0.031088183 -0.08226253
-0.060757127 0.029654201 0.022404812 -0.018270718 -0.050710287 0.01966815 0.03498861 -0.06772226
0.018938027 -0.011478341 0.02433824 -0.058756445 -0.016599927 0.01934308 -0.0099592 0.02045616
0.022047833 -0.038176343 -0.07212848 -0.008890443 -0.042812854 -0.03432484 -0.04525336 -0.03140491
0.10750724 -0.0039625755 -0.020441078 0.014827028 0.10567043 0.03408695 0.06306264 0.050668824
0.029271875 0.081437446 0.09623151 0.1068852 0.02267415 0.090326466 0.02106825 0.06583913
0.015782071 0.031002395 0.057859983 0.07008087 0.07560359 -0.008289641 0.054246098 0.015425809
0.00091500767 0.04398957 0.1117488 -0.0020971731 0.10839655 0.027159227 0.03358055 -0.005249848
0.023866469 0.10356248 0.10928536 0.06920178 0.11264877 0.068507105 0.020121979 0.017761644
0.0010593333 0.084369004 -0.016323896 0.016477859 0.07538622 0.060449198 0.010604279 0.012522463
0.05900061 0.08163065 -0.020244224 0.06371978 0.058259923 0.08826235 0.11663334 0.061417777

fc1.bias f4 [10]
00000000: d4e9 903b 4858 063e d8c6 8b3c 222f 033d
00000010: 2b39 69bc 8e16 babd 7392 e4bb ebfb 453d
00000020: b30b e6bb 983e 09bd
0.0044224057 0.13119614 0.01706259 0.03202737 -0.014234821 -0.09086333 -0.006975466 0.04833595
-0.0070204376 -0.03350696
